…
rm that Keras allows one to put in. Then, the model is compiled. The following is what I get when I run this function. The summary() function gives an idea of the created model . X_autoencoder = autoencoder_model(input_size, 2, [30, 16], 8) . The following Autoencoder Model was created Model: &#34;functional_1&#34; _________________________________________________________________ Layer (type) Output Shape Param # ================================================================= input_1 (InputLayer) [(None, 100)] 0 _________________________________________________________________ dense (Dense) (None, 30) 3030 _________________________________________________________________ dense_1 (Dense) (None, 16) 496 _________________________________________________________________ dense_2 (Dense) (None, 8) 136 _________________________________________________________________ dense_3 (Dense) (None, 16) 144 _________________________________________________________________ dense_4 (Dense) (None, 30) 510 _________________________________________________________________ dense_5 (Dense) (None, 100) 3100 ================================================================= Total params: 7,416 Trainable params: 7,416 Non-trainable params: 0 _________________________________________________________________ . So what did I use this autoencoder for? . An unsupervised anomaly detection algorithm for timeseries data. . Did I do well? . Not sure. But I will share it in another post. . What&#39;s my hope? . 
…
